#sparse = #sparse_tensor.encoding<{ map = (d0, d1) -> (d0 : dense, d1 : compressed), posWidth = 64, crdWidth = 64 }>
module {
  func.func @main(%arg0: !torch.vtensor<[5,4],f32>, %arg1: !torch.vtensor<[5,5],f32,#sparse>) -> !torch.vtensor<[5,3],f32> {
    %0 = torch.vtensor.literal(dense_resource<torch_tensor_8_4_torch.float32> : tensor<8x4xf32>) : !torch.vtensor<[8,4],f32>
    %none = torch.constant.none
    %1 = torch.aten.linear %arg0, %0, %none : !torch.vtensor<[5,4],f32>, !torch.vtensor<[8,4],f32>, !torch.none -> !torch.vtensor<[5,8],f32>
    %2 = torch.operator "torch.aten._sparse_mm"(%arg1, %1) : (!torch.vtensor<[5,5],f32,#sparse>, !torch.vtensor<[5,8],f32>) -> !torch.vtensor<[5,8],f32>
    %3 = torch.vtensor.literal(dense_resource<torch_tensor_8_torch.float32> : tensor<8xf32>) : !torch.vtensor<[8],f32>
    %int1 = torch.constant.int 1
    %4 = torch.aten.add.Tensor %2, %3, %int1 : !torch.vtensor<[5,8],f32>, !torch.vtensor<[8],f32>, !torch.int -> !torch.vtensor<[5,8],f32>
    %5 = torch.aten.relu %4 : !torch.vtensor<[5,8],f32> -> !torch.vtensor<[5,8],f32>
    %6 = torch.vtensor.literal(dense_resource<torch_tensor_3_8_torch.float32> : tensor<3x8xf32>) : !torch.vtensor<[3,8],f32>
    %none_0 = torch.constant.none
    %7 = torch.aten.linear %5, %6, %none_0 : !torch.vtensor<[5,8],f32>, !torch.vtensor<[3,8],f32>, !torch.none -> !torch.vtensor<[5,3],f32>
    %8 = torch.operator "torch.aten._sparse_mm"(%arg1, %7) : (!torch.vtensor<[5,5],f32,#sparse>, !torch.vtensor<[5,3],f32>) -> !torch.vtensor<[5,3],f32>
    %9 = torch.vtensor.literal(dense_resource<torch_tensor_3_torch.float32> : tensor<3xf32>) : !torch.vtensor<[3],f32>
    %int1_1 = torch.constant.int 1
    %10 = torch.aten.add.Tensor %8, %9, %int1_1 : !torch.vtensor<[5,3],f32>, !torch.vtensor<[3],f32>, !torch.int -> !torch.vtensor<[5,3],f32>
    %int-1 = torch.constant.int -1
    %none_2 = torch.constant.none
    %11 = torch.aten.log_softmax.int %10, %int-1, %none_2 : !torch.vtensor<[5,3],f32>, !torch.int, !torch.none -> !torch.vtensor<[5,3],f32>
    return %11 : !torch.vtensor<[5,3],f32>
  }
}

{-#
  dialect_resources: {
    builtin: {
      torch_tensor_8_4_torch.float32: "…",
      torch_tensor_8_torch.float32: "…",
      torch_tensor_3_8_torch.float32: "…",
      torch_tensor_3_torch.float32: "0x04000000000000000000000000000000"
    }
  }
#-}
