#sparse = #sparse_tensor.encoding<{ map = (d0, d1) -> (d0 : dense, d1 : compressed), posWidth = 64, crdWidth = 64 }>
module {
  func.func @main(%arg0: !torch.vtensor<[5,4],f32>, %arg1: !torch.vtensor<[5,5],f32,#sparse>) -> !torch.vtensor<[5,3],f32> {
    %str = torch.constant.str "mean"
    %0 = torch.operator "torch.aten._sparse_mm.reduce"(%arg1, %arg0, %str) : (!torch.vtensor<[5,5],f32,#sparse>, !torch.vtensor<[5,4],f32>, !torch.str) -> !torch.vtensor<[5,4],f32>
    %1 = torch.vtensor.literal(dense_resource<torch_tensor_8_4_torch.float32> : tensor<8x4xf32>) : !torch.vtensor<[8,4],f32>
    %2 = torch.vtensor.literal(dense_resource<torch_tensor_8_torch.float32> : tensor<8xf32>) : !torch.vtensor<[8],f32>
    %3 = torch.aten.linear %0, %1, %2 : !torch.vtensor<[5,4],f32>, !torch.vtensor<[8,4],f32>, !torch.vtensor<[8],f32> -> !torch.vtensor<[5,8],f32>
    %4 = torch.vtensor.literal(dense_resource<torch_tensor_8_4_torch.float32_1> : tensor<8x4xf32>) : !torch.vtensor<[8,4],f32>
    %none = torch.constant.none
    %5 = torch.aten.linear %arg0, %4, %none : !torch.vtensor<[5,4],f32>, !torch.vtensor<[8,4],f32>, !torch.none -> !torch.vtensor<[5,8],f32>
    %int1 = torch.constant.int 1
    %6 = torch.aten.add.Tensor %3, %5, %int1 : !torch.vtensor<[5,8],f32>, !torch.vtensor<[5,8],f32>, !torch.int -> !torch.vtensor<[5,8],f32>
    %7 = torch.aten.relu %6 : !torch.vtensor<[5,8],f32> -> !torch.vtensor<[5,8],f32>
    %str_0 = torch.constant.str "mean"
    %8 = torch.operator "torch.aten._sparse_mm.reduce"(%arg1, %7, %str_0) : (!torch.vtensor<[5,5],f32,#sparse>, !torch.vtensor<[5,8],f32>, !torch.str) -> !torch.vtensor<[5,8],f32>
    %9 = torch.vtensor.literal(dense_resource<torch_tensor_3_8_torch.float32> : tensor<3x8xf32>) : !torch.vtensor<[3,8],f32>
    %10 = torch.vtensor.literal(dense_resource<torch_tensor_3_torch.float32> : tensor<3xf32>) : !torch.vtensor<[3],f32>
    %11 = torch.aten.linear %8, %9, %10 : !torch.vtensor<[5,8],f32>, !torch.vtensor<[3,8],f32>, !torch.vtensor<[3],f32> -> !torch.vtensor<[5,3],f32>
    %12 = torch.vtensor.literal(dense_resource<torch_tensor_3_8_torch.float32_1> : tensor<3x8xf32>) : !torch.vtensor<[3,8],f32>
    %none_1 = torch.constant.none
    %13 = torch.aten.linear %7, %12, %none_1 : !torch.vtensor<[5,8],f32>, !torch.vtensor<[3,8],f32>, !torch.none -> !torch.vtensor<[5,3],f32>
    %int1_2 = torch.constant.int 1
    %14 = torch.aten.add.Tensor %11, %13, %int1_2 : !torch.vtensor<[5,3],f32>, !torch.vtensor<[5,3],f32>, !torch.int -> !torch.vtensor<[5,3],f32>
    %int-1 = torch.constant.int -1
    %none_3 = torch.constant.none
    %15 = torch.aten.log_softmax.int %14, %int-1, %none_3 : !torch.vtensor<[5,3],f32>, !torch.int, !torch.none -> !torch.vtensor<[5,3],f32>
    return %15 : !torch.vtensor<[5,3],f32>
  }
}

{-#
  dialect_resources: {
    builtin: {
      torch_tensor_8_4_torch.float32: "…",
      torch_tensor_8_torch.float32: "…",
      torch_tensor_8_4_torch.float32_1: "…",
      torch_tensor_3_8_torch.float32: "…",
      torch_tensor_3_torch.float32: "0x04000000D8E792BE13F9CFBC4312B33E",
      torch_tensor_3_8_torch.float32_1: "…"
    }
  }
#-}
